2026-04-17 17:10:47 Transformer(
  (embedding_model): EmbeddingModel(embedding_layers=ModuleDict(
    (conditions): Embedding(4493, 128)
    (procedures): Embedding(1414, 128)
    (drugs_hist): Embedding(1164, 128)
  ))
  (transformer): ModuleDict(
    (conditions): TransformerLayer(
      (transformer): ModuleList(
        (0): TransformerBlock(
          (attention): MultiHeadedAttention(heads=1, d_model=128, dropout=0.1)
          (feed_forward): PositionwiseFeedForward(
            (w_1): Linear(in_features=128, out_features=512, bias=True)
            (w_2): Linear(in_features=512, out_features=128, bias=True)
            (dropout): Dropout(p=0.5, inplace=False)
            (activation): GELU(approximate='none')
          )
          (input_sublayer): SublayerConnection(
            (norm): LayerNorm((128,), eps=1e-05, elementwise_affine=True)
            (dropout): Dropout(p=0.5, inplace=False)
          )
          (output_sublayer): SublayerConnection(
            (norm): LayerNorm((128,), eps=1e-05, elementwise_affine=True)
            (dropout): Dropout(p=0.5, inplace=False)
          )
          (dropout): Dropout(p=0.5, inplace=False)
        )
      )
    )
    (procedures): TransformerLayer(
      (transformer): ModuleList(
        (0): TransformerBlock(
          (attention): MultiHeadedAttention(heads=1, d_model=128, dropout=0.1)
          (feed_forward): PositionwiseFeedForward(
            (w_1): Linear(in_features=128, out_features=512, bias=True)
            (w_2): Linear(in_features=512, out_features=128, bias=True)
            (dropout): Dropout(p=0.5, inplace=False)
            (activation): GELU(approximate='none')
          )
          (input_sublayer): SublayerConnection(
            (norm): LayerNorm((128,), eps=1e-05, elementwise_affine=True)
            (dropout): Dropout(p=0.5, inplace=False)
          )
          (output_sublayer): SublayerConnection(
            (norm): LayerNorm((128,), eps=1e-05, elementwise_affine=True)
            (dropout): Dropout(p=0.5, inplace=False)
          )
          (dropout): Dropout(p=0.5, inplace=False)
        )
      )
    )
    (drugs_hist): TransformerLayer(
      (transformer): ModuleList(
        (0): TransformerBlock(
          (attention): MultiHeadedAttention(heads=1, d_model=128, dropout=0.1)
          (feed_forward): PositionwiseFeedForward(
            (w_1): Linear(in_features=128, out_features=512, bias=True)
            (w_2): Linear(in_features=512, out_features=128, bias=True)
            (dropout): Dropout(p=0.5, inplace=False)
            (activation): GELU(approximate='none')
          )
          (input_sublayer): SublayerConnection(
            (norm): LayerNorm((128,), eps=1e-05, elementwise_affine=True)
            (dropout): Dropout(p=0.5, inplace=False)
          )
          (output_sublayer): SublayerConnection(
            (norm): LayerNorm((128,), eps=1e-05, elementwise_affine=True)
            (dropout): Dropout(p=0.5, inplace=False)
          )
          (dropout): Dropout(p=0.5, inplace=False)
        )
      )
    )
  )
  (fc): Linear(in_features=384, out_features=1324, bias=True)
)
2026-04-17 17:10:47 Metrics: ['jaccard_samples', 'f1_samples', 'pr_auc_samples']
2026-04-17 17:10:47 Device: cuda
2026-04-17 17:10:47 
2026-04-17 17:10:47 Training:
2026-04-17 17:10:47 Batch size: 32
2026-04-17 17:10:47 Optimizer: <class 'torch.optim.adam.Adam'>
2026-04-17 17:10:47 Optimizer params: {'lr': 0.001}
2026-04-17 17:10:47 Weight decay: 0.0
…
