2026-04-25 16:16:50 RETAINModel(
  (embedding_model): EmbeddingModel(embedding_layers=ModuleDict(
    (conditions): Embedding(3999, 128, padding_idx=0)
    (procedures): Embedding(1297, 128, padding_idx=0)
    (drugs): Embedding(2530, 128, padding_idx=0)
  ))
  (retain): ModuleDict(
    (conditions): RETAINLayer(
      (dropout_layer): Dropout(p=0.5, inplace=False)
      (alpha_gru): GRU(128, 128, batch_first=True, bidirectional=True)
      (alpha_li): Linear(in_features=256, out_features=1, bias=True)
      (beta_gru): GRU(128, 128, batch_first=True)
      (beta_li): Linear(in_features=128, out_features=128, bias=True)
    )
    (procedures): RETAINLayer(
      (dropout_layer): Dropout(p=0.5, inplace=False)
      (alpha_gru): GRU(128, 128, batch_first=True, bidirectional=True)
      (alpha_li): Linear(in_features=256, out_features=1, bias=True)
      (beta_gru): GRU(128, 128, batch_first=True)
      (beta_li): Linear(in_features=128, out_features=128, bias=True)
    )
    (drugs): RETAINLayer(
      (dropout_layer): Dropout(p=0.5, inplace=False)
      (alpha_gru): GRU(128, 128, batch_first=True, bidirectional=True)
      (alpha_li): Linear(in_features=256, out_features=1, bias=True)
      (beta_gru): GRU(128, 128, batch_first=True)
      (beta_li): Linear(in_features=128, out_features=128, bias=True)
    )
  )
  (fc): Linear(in_features=384, out_features=1, bias=True)
  (focal): FocalLoss()
)
2026-04-25 16:16:50 Metrics: None
2026-04-25 16:16:50 Device: cuda
2026-04-25 16:16:50 
2026-04-25 16:16:50 Training:
2026-04-25 16:16:50 Batch size: 32
2026-04-25 16:16:50 Optimizer: <class 'torch.optim.adam.Adam'>
2026-04-25 16:16:50 Optimizer params: {'lr': 0.0005}
2026-04-25 16:16:50 Weight decay: 0.0
2026-04-25 16:16:50 Max grad norm: None
…
