2026-04-25 13:15:22 RETAINModel(
  (embedding_model): EmbeddingModel(embedding_layers=ModuleDict(
    (conditions): Embedding(3999, 128, padding_idx=0)
    (procedures): Embedding(1297, 128, padding_idx=0)
    (drugs): Embedding(2530, 128, padding_idx=0)
  ))
  (retain): ModuleDict(
    (conditions): RETAINLayer(
      (dropout_layer): Dropout(p=0.5, inplace=False)
      (alpha_gru): GRU(128, 128, batch_first=True)
      (alpha_li): Linear(in_features=128, out_features=1, bias=True)
      (beta_gru): GRU(128, 128, batch_first=True)
      (beta_li): Linear(in_features=128, out_features=128, bias=True)
    )
    (procedures): RETAINLayer(
      (dropout_layer): Dropout(p=0.5, inplace=False)
      (alpha_gru): GRU(128, 128, batch_first=True)
      (alpha_li): Linear(in_features=128, out_features=1, bias=True)
      (beta_gru): GRU(128, 128, batch_first=True)
      (beta_li): Linear(in_features=128, out_features=128, bias=True)
    )
    (drugs): RETAINLayer(
      (dropout_layer): Dropout(p=0.5, inplace=False)
      (alpha_gru): GRU(128, 128, batch_first=True)
      (alpha_li): Linear(in_features=128, out_features=1, bias=True)
      (beta_gru): GRU(128, 128, batch_first=True)
      (beta_li): Linear(in_features=128, out_features=128, bias=True)
    )
  )
  (fc): Linear(in_features=384, out_features=1, bias=True)
)
2026-04-25 13:15:22 Metrics: None
2026-04-25 13:15:22 Device: cuda
2026-04-25 13:15:22 
2026-04-25 13:15:22 Training:
2026-04-25 13:15:22 Batch size: 32
2026-04-25 13:15:22 Optimizer: <class 'torch.optim.adam.Adam'>
2026-04-25 13:15:22 Optimizer params: {'lr': 0.0005}
2026-04-25 13:15:22 Weight decay: 0.0
2026-04-25 13:15:22 Max grad norm: None
2026-04-25 13:15:22 Val dataloader: <torch.utils.data.dataloader.DataLoader object at 0x7c2658412ed0>
…
