2026-04-23 22:36:30 RETAINModel(
  (embedding_model): EmbeddingModel(embedding_layers=ModuleDict(
    (conditions): Embedding(4102, 256, padding_idx=0)
    (procedures): Embedding(1304, 256, padding_idx=0)
    (drugs): Embedding(2624, 256, padding_idx=0)
  ))
  (retain): ModuleDict(
    (conditions): RETAINLayer(
      (dropout_layer): Dropout(p=0.3, inplace=False)
      (alpha_gru): GRU(256, 256, batch_first=True)
      (alpha_li): Linear(in_features=256, out_features=1, bias=True)
      (beta_gru): GRU(256, 256, batch_first=True)
      (beta_li): Linear(in_features=256, out_features=256, bias=True)
    )
    (procedures): RETAINLayer(
      (dropout_layer): Dropout(p=0.3, inplace=False)
      (alpha_gru): GRU(256, 256, batch_first=True)
      (alpha_li): Linear(in_features=256, out_features=1, bias=True)
      (beta_gru): GRU(256, 256, batch_first=True)
      (beta_li): Linear(in_features=256, out_features=256, bias=True)
    )
    (drugs): RETAINLayer(
      (dropout_layer): Dropout(p=0.3, inplace=False)
      (alpha_gru): GRU(256, 256, batch_first=True)
      (alpha_li): Linear(in_features=256, out_features=1, bias=True)
      (beta_gru): GRU(256, 256, batch_first=True)
      (beta_li): Linear(in_features=256, out_features=256, bias=True)
    )
  )
  (fc): Linear(in_features=768, out_features=1, bias=True)
  (loss_fn): BCEWithLogitsLoss()
)
2026-04-23 22:36:30 Metrics: None
2026-04-23 22:36:30 Device: cuda
2026-04-23 22:36:30 
2026-04-23 22:36:30 Training:
2026-04-23 22:36:30 Batch size: 32
2026-04-23 22:36:30 Optimizer: <class 'torch.optim.adam.Adam'>
2026-04-23 22:36:30 Optimizer params: {'lr': 0.001}
2026-04-23 22:36:30 Weight decay: 0.0001
2026-04-23 22:36:30 Max grad norm: None
…
