2026-04-24 12:38:43 RETAINModel(
  (embedding_model): EmbeddingModel(embedding_layers=ModuleDict(
    (conditions): Embedding(3999, 128, padding_idx=0)
    (procedures): Embedding(1297, 128, padding_idx=0)
    (drugs): Embedding(2530, 128, padding_idx=0)
  ))
  (retain): ModuleDict(
    (conditions): RETAINLayer(
      (dropout_layer): Dropout(p=0.5, inplace=False)
      (alpha_gru): GRU(128, 128, batch_first=True)
      (alpha_li): Linear(in_features=128, out_features=1, bias=True)
      (beta_gru): GRU(128, 128, batch_first=True)
      (beta_li): Linear(in_features=128, out_features=128, bias=True)
    )
    (procedures): RETAINLayer(
      (dropout_layer): Dropout(p=0.5, inplace=False)
      (alpha_gru): GRU(128, 128, batch_first=True)
      (alpha_li): Linear(in_features=128, out_features=1, bias=True)
      (beta_gru): GRU(128, 128, batch_first=True)
      (beta_li): Linear(in_features=128, out_features=128, bias=True)
    )
    (drugs): RETAINLayer(
      (dropout_layer): Dropout(p=0.5, inplace=False)
      (alpha_gru): GRU(128, 128, batch_first=True)
      (alpha_li): Linear(in_features=128, out_features=1, bias=True)
      (beta_gru): GRU(128, 128, batch_first=True)
      (beta_li): Linear(in_features=128, out_features=128, bias=True)
    )
  )
  (fc): Linear(in_features=384, out_features=1, bias=True)
)
2026-04-24 12:38:43 Metrics: None
2026-04-24 12:38:43 Device: cuda
2026-04-24 12:38:43 
2026-04-24 12:38:43 Training:
2026-04-24 12:38:43 Batch size: 32
2026-04-24 12:38:43 Optimizer: <class 'torch.optim.adam.Adam'>
2026-04-24 12:38:43 Optimizer params: {'lr': 0.001}
2026-04-24 12:38:43 Weight decay: 0.0001
2026-04-24 12:38:43 Max grad norm: None
2026-04-24 12:38:43 Val dataloader: <torch.utils.data.dataloader.DataLoader object at 0x7573bb7ff050>
…
