2026-04-23 23:27:34 RETAIN(
  (embedding_model): EmbeddingModel(embedding_layers=ModuleDict(
    (conditions): Embedding(4493, 128)
    (procedures): Embedding(1414, 128)
    (drugs_hist): Embedding(1164, 128)
  ))
  (retain): ModuleDict(
    (conditions): RETAINLayer(
      (dropout_layer): Dropout(p=0.5, inplace=False)
      (alpha_gru): GRU(128, 128, batch_first=True)
      (beta_gru): GRU(128, 128, batch_first=True)
      (alpha_li): Linear(in_features=128, out_features=1, bias=True)
      (beta_li): Linear(in_features=128, out_features=128, bias=True)
    )
    (procedures): RETAINLayer(
      (dropout_layer): Dropout(p=0.5, inplace=False)
      (alpha_gru): GRU(128, 128, batch_first=True)
      (beta_gru): GRU(128, 128, batch_first=True)
      (alpha_li): Linear(in_features=128, out_features=1, bias=True)
      (beta_li): Linear(in_features=128, out_features=128, bias=True)
    )
    (drugs_hist): RETAINLayer(
      (dropout_layer): Dropout(p=0.5, inplace=False)
      (alpha_gru): GRU(128, 128, batch_first=True)
      (beta_gru): GRU(128, 128, batch_first=True)
      (alpha_li): Linear(in_features=128, out_features=1, bias=True)
      (beta_li): Linear(in_features=128, out_features=128, bias=True)
    )
  )
  (fc): Linear(in_features=384, out_features=1324, bias=True)
)
2026-04-23 23:27:34 Metrics: ['jaccard_samples', 'f1_samples', 'pr_auc_samples']
2026-04-23 23:27:34 Device: cuda
2026-04-23 23:27:34 
2026-04-23 23:27:34 Training:
2026-04-23 23:27:34 Batch size: 32
2026-04-23 23:27:34 Optimizer: <class 'torch.optim.adam.Adam'>
2026-04-23 23:27:34 Optimizer params: {'lr': 0.001}
2026-04-23 23:27:34 Weight decay: 0.0
…
